last_brain.pth (torch_old, 4234 bytes, 12 tensors)

fc1.weight f4 [30, 3]
0	0xbf079423	-0.52960414
1	0x3e719c62	0.23594812
2	0x3e860c0d	0.2618107
3	0x3e7594bb	0.23982517
4	0xbe4ca283	-0.19983868
5	0x3dee03ea	0.1162184
6	0xbe25b0bd	-0.16180702
7	0x3e344619	0.17604865
8	0xbcb71bef	-0.022352187
9	0xbea90902	-0.33014685
10	0x3e5cd09a	0.2156395
11	0x3ec2824d	0.37990037
12	0xbf0aa92e	-0.541644
13	0xbe7831c6	-0.24237737
14	0xbe3bc008	-0.18334973
15	0xbeb6ec9f	-0.35727403
16	0x3e8cefa8	0.27526593
17	0xbea0d2b6	-0.3141076
18	0xbe64ed90	-0.22356248
19	0xbe9a2625	-0.30107227
20	0xbe4b89ea	-0.19876829
21	0xbdd1e8f8	-0.102495134
22	0xbec726bf	-0.38896748
23	0x3e928b2a	0.286218
24	0x3eaac4a7	0.3335316
25	0x3e97fcef	0.2968516
26	0xbcdfd792	-0.027324472
27	0xbe88c6a9	-0.26714066
28	0x3d613ccd	0.054989625
29	0x3ec52f6e	0.38512748
30	0xbb52d600	-0.003217101
31	0xbf12666e	-0.57187545
32	0xbec67d60	-0.3876753
33	0x3ef77b71	0.48336366
34	0x3e85dcd2	0.26145035
35	0xbe37157b	-0.17879288
36	0x3da61143	0.08108761
37	0x3ea46f8e	0.3211636
38	0xbe783208	-0.24237835
39	0xbe7c4ebb	-0.24639408
40	0x3ea365e9	0.3191369
41	0xbc8f4ec7	-0.017493619
42	0x3dc70688	0.097180426
43	0xbdc2e6d1	-0.09516681
44	0xbebf309d	-0.37341776
45	0x3e9954b4	0.29947436
46	0xbe89b063	-0.26892385
47	0x3e947f7e	0.2900352
48	0x3e936da3	0.28794584
49	0x3e66d282	0.2254124
50	0xbf415f6f	-0.75536245
51	0xbdc01ea6	-0.09380846
52	0x3eb5b451	0.35489133
53	0x3ec8bd55	0.3920695
54	0xbe9db2a8	-0.30800366
55	0xbd8929ec	-0.06697449
56	0x3eade1f6	0.33961457
57	0xbe1737d9	-0.14767398
58	0xbe6c889f	-0.23098992
59	0x3f1531cc	0.5827911
60	0xbac8e087	-0.0015325703
61	0x3e89b50a	0.26895934
62	0x3eb77069	0.3582795
63	0x3df6cc92	0.120507374
64	0x3e9ea9c2	0.3098889
65	0xbdb7aaa0	-0.08968091
66	0x3e801246	0.25013942
67	0x3e4eaa91	0.20182253
68	0x3bbed37f	0.005823552
69	0xbea87736	-0.3290345
70	0x3e8daaf0	0.27669477
71	0xbe9679ac	-0.29389703
72	0xbeda9408	-0.42691064
73	0x3e9f4657	0.31108353
74	0xbe1228b8	-0.14273345
75	0xbe2689af	-0.1626346
76	0x3b534c83	0.003224165
77	0x3efc4094	0.4926802
78	0xbce37024	-0.027763434
79	0x3ef5e4e7	0.480262
80	0x3c055b1c	0.008139398
81	0xbefdb800	-0.49554443
82	0x3ebaecfd	0.36508933
83	0x3e8c2f3b	0.27379784
84	0xbdfd23aa	-0.12360318
85	0xbe8314b6	-0.2560174
86	0x3e35c955	0.17752583
87	0xbe3ab5a6	-0.18233356
88	0xbea398a4	-0.31952393
89	0x3e0c5b9d	0.13706823

fc1.bias f4 [30]
0	0x3f7a21c6	0.97707784
1	0xbf494047	-0.78613704
2	0x3ee4b204	0.44667065
3	0x3f6c50ce	0.923108
4	0xbe584c90	-0.21122956
5	0xbed65d20	-0.41867924
6	0x3efb155a	0.49039727
7	0xbecf7970	-0.40522337
8	0x3e90a4cb	0.28250727
9	0x3f7459b9	0.95449406
10	0x3f6fa38f	0.93608946
11	0x3f7e89b8	0.9942889
12	0xbee0bf80	-0.43896103
13	0x3f01ad97	0.506555
14	0xbe800106	-0.2500078
15	0xbf26b996	-0.6512693
16	0xbfac426b	-1.3457769
17	0xbf914863	-1.1350216
18	0x3e217674	0.15767843
19	0x3fb6be98	1.4276915
20	0xbf98260b	-1.188661
21	0xbd9436ec	-0.07237038
22	0x3f24cc05	0.6437381
23	0x3fab654c	1.3390288
24	0xbf377df6	-0.71676576
25	0xbed51cc1	-0.416235
26	0x3e89b05f	0.26892373
27	0x3d895d5b	0.06707259
28	0xbfa11925	-1.2585799
29	0x3f9239c2	1.1423876

fc2.weight f4 [3, 30]
0	0xbd6627dd	-0.05619036
1	0x3d5165bb	0.05112241
2	0xbe1c85db	-0.15285437
3	0xbd63fc05	-0.055660266
4	0x3d042a78	0.032267064
5	0x3da9cb31	0.08290709
6	0x3e4ced80	0.20012474
7	0x3d60a0fd	0.05484103
8	0x3b632381	0.0034658613
9	0x3ae4f742	0.0017468708
10	0x3ed6d89e	0.4196214
11	0xbe20ff67	-0.15722428
12	0x3da98062	0.0827644
13	0xbc672ae1	-0.014109344
14	0x3eb34918	0.35016704
15	0x3d40a833	0.047035407
16	0x3d62fc5e	0.055416457
17	0x3dedf91f	0.11619782
18	0x3d58acaf	0.05289906
19	0xbe1ce94a	-0.15323368
20	0x3d40e83d	0.04709648
21	0x3e0cff5e	0.1376929
22	0xbe1a5b4d	-0.15073891
23	0xbe5093a0	-0.20368814
24	0x3de9d0d8	0.11416787
25	0x3d6c9c07	0.057765987
26	0x3ce3a93a	0.027790654
27	0xbd70b823	-0.058769356
28	0x3d838fe8	0.06423932
29	0xbd88753f	-0.06662988
30	0x3d85aeba	0.06527467
31	0x3d25eb51	0.04050762
32	0x3d434b3d	0.047679175
33	0x3caa42e9	0.020783858
34	0x3dff3748	0.12461716
35	0xbea18f53	-0.3155466
36	0xbd8da021	-0.06915308
37	0xbd85f97e	-0.065417275
38	0x3c9f1348	0.019418374
39	0xbcf2b2b6	-0.029626232
40	0x3d648bd0	0.055797398
41	0xbe020fbd	-0.12701316
42	0x3c57f90b	0.013181935
43	0xbdc02447	-0.09381919
44	0x3e0e1a9c	0.13877338
45	0x3d394e27	0.045240548
46	0xbc840c4e	-0.016119149
47	0x3db56834	0.08857766
48	0xbdd98679	-0.10621352
49	0xbdb48293	-0.088139676
50	0x3d4d1b3a	0.050074793
51	0xbda0647c	-0.07831666
52	0x3df71276	0.12064068
53	0x3e4cffab	0.20019405
54	0xbdf5f0b7	-0.12008803
55	0xbd7ca5c9	-0.061681543
56	0xbd8f1c3b	-0.069878064
57	0x3d52686d	0.05136912
58	0x3e0a1b7f	0.13487051
59	0x3e0a42c5	0.13502033
60	0xbd9c5f04	-0.0763531
61	0xbd8dc2bf	-0.069219105
62	0x3d3c1b94	0.045924738
63	0xbd85acbd	-0.06527088
64	0xbcf311e8	-0.029671624
65	0x3da2061f	0.07911324
66	0xbe37a5a7	-0.17934285
67	0xbddfdfb3	-0.10931339
68	0xbe1c0a27	-0.15238248
69	0x3ccc24a4	0.024919815
70	0x3e142118	0.1446575
71	0x3d7419c6	0.059594892
72	0x3e0cb55e	0.13741061
73	0xbd6b32b1	-0.05742139
74	0xbe060619	-0.13088264
75	0x3df13ebf	0.11779546
76	0x3dd0a8dc	0.10188457
77	0x3e12a247	0.14319716
78	0xbe0c2aaf	-0.13688157
79	0x3ce5d133	0.028053856
80	0x3d8057a8	0.06266719
81	0xbd896636	-0.06708948
82	0xbd8b3546	-0.067972705
83	0xbe14012e	-0.14453575
84	0xbd25668c	-0.040381
85	0xbd956089	-0.07293803
86	0xbdd77d8c	-0.10521993
87	0x3e1767ac	0.14785641
88	0xbe2c8547	-0.16847716
89	0x3e14fdb2	0.14549902

fc2.bias f4 [3]
0	0xbf1564c8	-0.58356905
1	0xbf62979b	-0.8851258
2	0xbf4111b2	-0.75417626

exp_avg f4 [30, 3]
0	0x3d07a21c	0.033113584
1	0xbef04714	-0.46929228
2	0x3f4a21fd	0.7895811
3	0xbeade6c2	-0.33965117
4	0xbd579530	-0.05263251
5	0x3e5587a9	0.20852531
6	0x3e1b7bcf	0.15183948
7	0x3f19bb2a	0.60051215
8	0x3e32d235	0.17463
9	0x3d330c76	0.043713056
10	0xbecf5d78	-0.40500998
11	0x3f2f6a8c	0.6852195
12	0x00000000	0.0
13	0x00000000	0.0
14	0x00000000	0.0
15	0xb9a6c460	-0.00031808298
16	0x3f3d653f	0.73982614
17	0x3d6ba92a	0.057534374
18	0x800004e3	-1.753e-42
19	0x00000000	0.0
20	0x00000000	0.0
21	0xbc970f64	-0.018439956
22	0xbb832bc2	-0.004003019
23	0x3eff5ca2	0.4987536
24	0xbf147589	-0.57991844
25	0xbf8e8cde	-1.1136739
26	0x3ce8a721	0.028400006
27	0xbc19c507	-0.009385354
28	0x3e3e0c53	0.18559389
29	0xbe22cd8e	-0.15898725
30	0x80000a48	-3.688e-42
31	0x00000000	0.0
32	0x00000000	0.0
33	0x3edb149f	0.4278917
34	0x3f0f1478	0.5589061
35	0x3d618100	0.055054665
36	0x3edc1a88	0.42988992
37	0x3f80666b	1.0031255
38	0xbd5774b6	-0.05260154
39	0xbb2c1630	-0.0026258342
40	0xbf033e49	-0.51266915
41	0xbe1d93bf	-0.15388392
42	0xbf1a22dc	-0.6020944
43	0xbc09b002	-0.00840378
44	0xbb21c638	-0.0024684798
45	0x3ee6ccc8	0.4507811
46	0x3bcac4e8	0.006188024
47	0xbf711a55	-0.94180804
48	0x3eb81608	0.35954309
49	0x3f438faf	0.7639112
50	0xbccc1f9d	-0.024917418
51	0xbe7da48a	-0.24769798
52	0x3f82ccc9	1.0218745
53	0xbfb40a55	-1.4065653
54	0xbc162540	-0.0091641545
55	0xbe11d0a4	-0.14239746
56	0x3f20170e	0.6253518
57	0xbd0169a6	-0.031594895
58	0xbd968ffd	-0.07351682
59	0x3ee47b90	0.4462552
60	0x3e4569b9	0.19278611
61	0x3f00054e	0.50008094
62	0xbf155f3e	-0.58348453
63	0xbef6af2e	-0.48180526
64	0xbf3b55d6	-0.7317785
65	0xbe8ed7a6	-0.27898902
66	0xbd34db24	-0.0441543
67	0xbe0d6990	-0.138098
68	0x3f9fdf34	1.2489991
69	0x3d8f5279	0.06998152
70	0xbf7aed80	-0.98018646
71	0x3d32e5a6	0.04367604
72	0x3bf24e5b	0.0073945946
73	0xbe9fbb78	-0.31197715
74	0xbd8e7dea	-0.0695761
75	0xbda57480	-0.08078861
76	0xbf28c239	-0.6592136
77	0x3e141c36	0.14463887
78	0x3d1fdb3c	0.039027438
79	0xbf583cbe	-0.84467685
80	0x3ef8d0b5	0.4859673
81	0xbce5d86e	-0.028057303
82	0x3f9f2756	1.2433879
83	0xbf16f102	-0.589615
84	0xbd0188f6	-0.031624757
85	0x3d1741a9	0.036927853
86	0x3f334d4d	0.70039827
87	0xbda567aa	-0.08076413
88	0xbc0d3587	-0.008618719
89	0xbf5158c8	-0.81776094

exp_avg_sq f4 [30, 3]
0	0x3d1da0f5	0.03848358
1	0x42747420	61.113403
2	0x41028696	8.157858
3	0x4023040a	2.5471215
4	0x3d5e2482	0.054234035
5	0x40b64b19	5.696667
6	0x406a3597	3.6595209
7	0x43968153	301.01035
8	0x40c2bfdb	6.08592
9	0x3e81704c	0.25280988
10	0x4254b3b1	53.17548
11	0x40a29bde	5.0815268
12	0x00000000	0.0
13	0x00000000	0.0
14	0x00000000	0.0
15	0x3f4a78c6	0.79090536
16	0x42cbd203	101.91018
17	0x3da8e4d9	0.08246774
18	0x00000000	0.0
19	0x00000000	0.0
20	0x00000000	0.0
21	0x3ec03d91	0.3754697
22	0x3c9c4a79	0.01907848
23	0x41264c94	10.393696
24	0x40ec096f	7.3761516
25	0x42b28ba3	89.27273
26	0x3faf5e20	1.37006
27	0x3ddfc845	0.1092687
28	0x4019a7cf	2.4008672
29	0x3f9562d5	1.1670786
30	0x00000000	0.0
31	0x00000000	0.0
32	0x00000000	0.0
33	0x415b7915	13.717061
34	0x43a4f99e	329.95013
35	0x41142b41	9.26056
36	0x40df93b9	6.9867826
37	0x431bd062	155.814
38	0x3f35b4c8	0.70978975
39	0x3eb3cd71	0.35117677
40	0x41752236	15.320852
41	0x3fa51169	1.2895938
42	0x41564979	13.392938
43	0x3cb34c66	0.021887016
44	0x3c1a3385	0.009411697
45	0x4077e96a	3.8736215
46	0x3ed59483	0.41714868
47	0x4122f65b	10.185145
48	0x4090075e	4.5008993
49	0x42a1a069	80.8133
50	0x3d276352	0.040866204
51	0x408a0a3f	4.3137507
52	0x43714659	241.2748
53	0x41d6fb22	26.872623
54	0x3f841f52	1.0322058
55	0x401cdb98	2.450903
56	0x41adb108	21.711441
57	0x3f24625b	0.6421258
58	0x40817d23	4.0465255
59	0x41c745aa	24.909016
60	0x4021e30f	2.5294836
61	0x42271735	41.772663
62	0x40b2d484	5.588442
63	0x40f6bae9	7.710316
64	0x437fe2bb	255.88567
65	0x4096abda	4.708478
66	0x416a569c	14.646145
67	0x4398f533	305.91562
68	0x41ff0754	31.878578
69	0x40dfd9cc	6.9953365
70	0x44136c0f	589.6884
71	0x3ed43eb5	0.41454092
72	0x3f25a98b	0.6471183
73	0x4322e7a8	162.9049
74	0x40b309ef	5.5949626
75	0x3ebaaf7e	0.36462015
76	0x4277caed	61.94817
77	0x4111f983	9.123416
78	0x402e1f40	2.7206573
79	0x4255a466	53.410545
80	0x411c2927	9.760047
81	0x3fb64bc7	1.4241875
82	0x42fa5bb6	125.17912
83	0x418d9654	17.698402
84	0x3f92b233	1.1460632
85	0x3d1a26be	0.037634604
86	0x41c74dee	24.913052
87	0x3f250363	0.6445829
88	0x3cf1751d	0.02947479
89	0x41b20501	22.252443

exp_avg f4 [30]
0	0x3abc253a	0.0014354356
1	0x39a88975	0.0003214587
2	0x3b70b156	0.0036726794
3	0x3a1b5037	0.00059247337
4	0x00000000	0.0
5	0x3abefb89	0.0014570813
6	0xb8a68704	-7.9406454e-05
7	0xb83dd2a0	-4.525727e-05
8	0xba8f5c9c	-0.0010937634
9	0xba28d349	-0.00064401753
10	0xb92f13de	-0.00016696702
11	0x3a91a424	0.001111154
12	0x392b46e8	0.00016334245
13	0xbae15383	-0.0017191026
14	0xb8646560	-5.445385e-05
15	0x3a141bee	0.0005649914
16	0x3a5324ca	0.0008054493
17	0x3aa62424	0.0012675566
18	0xba8e2de3	-0.0010847416
19	0xbaf2d51f	-0.001852665
20	0x3a85463d	0.0010168027
21	0xbba29383	-0.0049614324
22	0x3b8e186d	0.004336408
23	0x3a189906	0.0005821142
24	0xbae72e16	-0.0017637636
25	0xbad32c6f	-0.0016111265
26	0xbb1b1add	-0.0023667135
27	0x3af2d933	0.0018527865
28	0x3b0e831e	0.0021745632
29	0xba7a8473	-0.00095564796

exp_avg_sq f4 [30]
0	0x37dcf593	2.6340398e-05
1	0x374e1e98	1.228568e-05
2	0x38b9199d	8.826258e-05
3	0x37b08dbc	2.1046835e-05
4	0x00000000	0.0
5	0x37eaa6ec	2.7972703e-05
6	0x32893795	1.5974175e-08
7	0x373dd598	1.1315009e-05
8	0x384a0ddb	4.8173457e-05
9	0x3689ed2f	4.11053e-06
10	0x33515fa2	4.8748582e-08
11	0x3908e4ef	0.00013055255
12	0x382c292f	4.104635e-05
13	0x3739d59b	1.1076593e-05
14	0x3650f5bb	3.113745e-06
15	0x37a6c549	1.988061e-05
16	0x37b92580	2.207118e-05
17	0x38c39f0b	9.327949e-05
18	0x38006509	3.0611674e-05
19	0x384e4895	4.9181825e-05
20	0x379b0392	1.8479102e-05
21	0x38dff6f2	0.00010679466
22	0x392d048e	0.00016500262
23	0x38f706c8	0.00011779141
24	0x38369d55	4.353871e-05
25	0x38094f0b	3.273696e-05
26	0x3816adf0	3.592478e-05
27	0x385bf623	5.24429e-05
28	0x3791421a	1.7316128e-05
29	0x372d7c73	1.0340579e-05

exp_avg f4 [3, 30]
0	0xbf9d04a8	-1.2267046
1	0xbf1352b6	-0.5754808
2	0xbd35df60	-0.04440248
3	0xbfec8768	-1.8478823
4	0x00000000	0.0
5	0x3d61bb00	0.055109978
6	0xb94cb330	-0.00019521709
7	0xbf9237f6	-1.1423328
8	0xbf3c1480	-0.7346878
9	0xbfdd1f24	-1.7275128
10	0xb9c3a3b1	-0.00037315258
11	0xbf54bda8	-0.8310189
12	0xbe86f630	-0.263597
13	0xbdd68fa0	-0.10476613
14	0x36ca46eb	6.028325e-06
15	0xbfb38b02	-1.4026797
16	0xbd186640	-0.03720689
17	0xc0105838	-2.2553844
18	0xbfb40edd	-1.4067036
19	0xc01cf7c2	-2.452622
20	0xc0053ff7	-2.082029
21	0xbeda64b0	-0.42654943
22	0xbf240ccc	-0.64082026
23	0xbcfd5280	-0.030923128
24	0x3cf90400	0.030397415
25	0xc010fb46	-2.2653365
26	0xbf29d668	-0.6634278
27	0xbfa6f938	-1.3044806
28	0xbf33db6f	-0.70256704
29	0xbf01d8a9	-0.5072122
30	0x3eadc655	0.33940378
31	0xbdcf3f10	-0.1011945
32	0x3e0ae946	0.13565549
33	0x3eacced2	0.3375154
34	0x00000000	0.0
35	0xbc9ae750	-0.018909127
36	0x00000000	0.0
37	0xbe6e8bc5	-0.23295505
38	0x3ec14ef6	0.37755555
39	0x3e2dc679	0.16970243
40	0x00000000	0.0
41	0x3e4f8178	0.20264232
42	0x3d28bcf4	0.041195825
43	0x3e9d9ffe	0.30786127
44	0xbc6989c0	-0.014254034
45	0xbd9b91c8	-0.07596165
46	0xbdc910a8	-0.0981763
47	0x3f15b5e7	0.58480686
48	0xbd57fac2	-0.052729376
49	0x3d4c4d0e	0.049878173
50	0x3effa4f8	0.4993055
51	0x3e72e07e	0.2371845
52	0x3e9db6ea	0.30803615
53	0xbcd276ee	-0.025691476
54	0x3b115b47	0.002217965
55	0x3e5f07ba	0.21780291
56	0x3f0a54f4	0.5403588
57	0x3f090a93	0.5353176
58	0xbe22d6e2	-0.15902284
59	0xbdb90d79	-0.09035773
60	0x3e72d1f0	0.23712897
61	0x3e6528f9	0.22378911
62	0x3fb14500	1.3849182
63	0xbf1ef794	-0.62096524
64	0x00000000	0.0
65	0x4008b8e3	2.1362846
66	0x00000000	0.0
67	0xbfdd3fd0	-1.7285099
68	0x40627d94	3.5389147
69	0xbff6f392	-1.9293082
70	0x00000000	0.0
71	0x4077f3b6	3.87425
72	0x403310c0	2.7978973
73	0x40205d48	2.5056934
74	0x3edad0b1	0.42737344
75	0xbf1d467b	-0.6143567
76	0x4035a5f6	2.8382545
77	0x3e699ca0	0.22813654
78	0xc006f321	-2.1085894
79	0xc0681a1c	-3.6265936
80	0xbe5d1858	-0.21591318
81	0x40350254	2.828267
82	0x401ac132	2.4180417
83	0x4008a249	2.134905
84	0x401ce6e6	2.451593
85	0xc040cc26	-3.0124602
86	0x405d92b8	3.46208
87	0x3fa392b7	1.2779149
88	0xbf8999a6	-1.0750015
89	0xbf4fd46b	-0.811835

exp_avg_sq f4 [3, 30]
0	0x444477c9	785.87164
1	0x41176922	9.463167
2	0x43b4124a	360.14288
3	0x443cf636	755.84705
4	0x00000000	0.0
5	0x44467cd9	793.95074
6	0x3432dceb	1.6657911e-07
7	0x4246707b	49.609844
8	0x4498d153	1222.5414
9	0x434de0bd	205.87788
10	0x34ced13b	3.8522725e-07
11	0x44717f6b	965.9909
12	0x449b345e	1241.6365
13	0x449bffd5	1247.9948
14	0x3683519e	3.9136057e-06
15	0x425cda12	55.21296
16	0x441e5970	633.39746
17	0x44e45574	1826.6704
18	0x42b930ba	92.59517
19	0x4377b10a	247.69156
20	0x448ee1c2	1143.0549
21	0x44979e34	1212.9438
22	0x440e9740	570.3633
23	0x444ed85a	827.3805
24	0x448685aa	1076.177
25	0x4353517a	211.31827
26	0x4535bfdd	2907.9915
27	0x44d68e65	1716.4498
28	0x4185a316	16.704632
29	0x41371fe4	11.445286
30	0x42612b95	56.29256
31	0x423ab210	46.67389
32	0x405f44ce	3.4885745
33	0x42cbaed2	101.841446
34	0x00000000	0.0
35	0x3ade23a3	0.0016947876
36	0x00000000	0.0
37	0x41c8290d	25.020044
38	0x429f3f67	79.62383
39	0x42ad15f8	86.54291
40	0x00000000	0.0
41	0x42f76943	123.70559
42	0x406dc8fb	3.7153919
43	0x4140cecc	12.0504875
44	0x406af643	3.6712806
45	0x42d71a3c	107.55124
46	0x422709bf	41.759518
47	0x431ddbf7	157.85924
48	0x423b5eee	46.842705
49	0x431666c1	150.40138
50	0x43027518	130.4574
51	0x415eb1c1	13.918397
52	0x42418810	48.382874
53	0x3c0b3af0	0.0084979385
54	0x406bcea5	3.6844876
55	0x430496d9	132.58925
56	0x4212c89b	36.695904
57	0x42a0482b	80.14095
58	0x40e7e91b	7.2472053
59	0x406699a5	3.6031277
60	0x436d502b	237.31316
61	0x41858f74	16.695045
62	0x42d5ca7d	106.895485
63	0x437af148	250.9425
64	0x00000000	0.0
65	0x4372fbb7	242.98326
66	0x00000000	0.0
67	0x422515f1	41.271427
68	0x43cfe555	415.79166
69	0x42c975a8	100.7298
70	0x00000000	0.0
71	0x43bcf353	377.90097
72	0x43c3c908	391.57056
73	0x43b6c051	365.50247
74	0x3face473	1.3507217
75	0x426f9fa9	59.90592
76	0x43679a67	231.60313
77	0x440dd4ee	567.327
78	0x427b322b	62.798992
79	0x433763db	183.39006
80	0x43b66957	364.82297
81	0x43bd93ab	379.15366
82	0x43453d20	197.23877
83	0x437c634c	252.38788
84	0x43a06e39	320.8611
85	0x4307e6ce	135.90158
86	0x445a1a62	872.41223
87	0x43fcd687	505.676
88	0x4170b83e	15.044981
89	0x410dad1e	8.854765

exp_avg f4 [3]
0	0xbc58cd6b	-0.013232569
1	0x3cbd4f8e	0.023109224
2	0x3bea173e	0.007143884

exp_avg_sq f4 [3]
0	0x3b89f09a	0.00420959
1	0x3b34cabf	0.0027586666
2	0x3b035fc8	0.0020046104
